…
re:</h3>\n<h4>CNN model:</h4>\n<ul>\n<li>Deep learning algorithms with CNN is expected to work well with text classification</li>\n<li>\n<p>CNN with and complied using loss = ‘categorical_crossentropy’ , optimizer = adam , metrics = accuracy\nModel: </p>\n<div class=\"gatsby-highlight\" data-language=\"text\"><pre class=\"language-text\"><code class=\"language-text\">_________________________________________________________________\nLayer (type)                 Output Shape              Param #   \n=================================================================\nembedding_1 (Embedding)      (None, 157, 500)          54695500  \n_________________________________________________________________\nconv1d_1 (Conv1D)            (None, 157, 128)          192128    \n_________________________________________________________________\nconv1d_2 (Conv1D)            (None, 157, 64)           24640     \n_________________________________________________________________\nconv1d_3 (Conv1D)            (None, 157, 32)           4128      \n_________________________________________________________________\nconv1d_4 (Conv1D)            (None, 157, 16)           1040      \n_________________________________________________________________\nflatten_1 (Flatten)          (None, 2512)              0         \n_________________________________________________________________\ndropout_1 (Dropout)          (None, 2512)              0         \n_________________________________________________________________\ndense_1 (Dense)              (None, 100)               251300    \n_________________________________________________________________\ndropout_2 (Dropout)          (None, 100)               0         \n_________________________________________________________________\ndense_2 (Dense)              (None, 7)                 707       \n=================================================================\nTotal params: 55,169,443\nTrainable params: 55,169,443\nNon* trainable params: 0</code></pre></div>\n<p><code class=\"language-text\">trained the model which produced Accuracy: 84.063542, Loss: 45.061589. Which is less the ML models.</code></p>\n</li>\n</ul>\n<p><span\n      class=\"gatsby-resp-image-wrapper\"\n      style
…
entropy’ , optimizer = adam , metrics = accuracy</p>\n<div class=\"gatsby-highlight\" data-language=\"text\"><pre class=\"language-text\"><code class=\"language-text\">Layer (type)                    Output Shape         Param #     Connected to                     \n==================================================================================================\ninput_1 (InputLayer)            [(None, 157)]        0                                            \n__________________________________________________________________________________________________\nembedding (Embedding)           (None, 157, 500)     54695500    input_1[0][0]                    \n__________________________________________________________________________________________________\nbidirectional (Bidirectional)   (None, 157, 256)     644096      embedding[0][0]                  \n__________________________________________________________________________________________________\nconv1d (Conv1D)                 (None, 155, 64)      49216       bidirectional[0][0]              \n__________________________________________________________________________________________________\nglobal_average_pooling1d (Globa (None, 64)           0           conv1d[0][0]                     \n__________________________________________________________________________________________________\nglobal_max_pooling1d (GlobalMax (None, 64)           0           conv1d[0][0]                     \n__________________________________________________________________________________________________\nconcatenate (Concatenate)       (None, 128)          0           global_average_pooling1d[0][0]   \n                                                             global_max_pooling1d[0][0]       \n__________________________________________________________________________________________________\ndense (Dense)                   (None, 7)            903         concatenate[0][0]                \n==================================================================================================\nTotal params: 55,389,715\nTrainable params: 55,389,715\nNon-trainable params: 0</code></pre></div>\n</li>\n</ul>\n<p><code class=\"language-text\">The Bidirectional LSTM has the highest accuracy of all the models Accuracy: 86.488497, Loss: 36.384022</code>
…
